scripts/torch/model.pt (torch, 957764 bytes, 175 tensors)

module.feature.conv0.conv.weight f4 [8, 3, 3, 3]
00000000: 652a 273e 3b0b c4bd a25a 7b3d a891 cf3d
00000010: 86d6 97be a7c4 5b3e 6429 e4bd 3df0 b33d
00000020: 6487 153e 65ea a1bd 7047 9fbd 9f5e ce3d
00000030: ddda 65be b5ee 1dbf 44c8 13be d88e 95be
00000040: 8103 1bbe 5564 ed3d f4f2 b23e aa1d 733e
00000050: 9360 7d3e 8fb3 11be 8657 87be c17a c73c
00000060: 6a60 dabd 44ce 8a3d 816a d93e 9beb 7b3e
00000070: c35a c5bd 32a5 ff3d 8a91 db3d 0e0c 403e
00000080: 65d0 773d 62ab 22be ad40 5dbe 7e9d 52be
00000090: f802 023f cddf 4c3e d2dc 303e 9386 433d
000000a0: 8f13 133e b2e0 9fbe 23e3 923d c598 90be
000000b0: 0a4a 10bf 6102 ad3e 5030 d73d 77ac 283e
000000c0: b9f5 e33d cb13 443a d277 a4be 54f6 fbbc
000000d0: 53ee 44bd 27ab b5be 0ed6 de3d a6df 883d
000000e0: 29f1 f7bd 4fc0 86be 5df6 8bba 28d1 86bd
000000f0: 0f60 8fbe 2627 24bd 432d d5bc 2712 af3e
00000100: 0f8a 2a3e 0f18 933d a695 d43b f338 963e
00000110: 782b 3ebd 2332 f1be e981 aabd 9570 42be
00000120: 7b16 b13e e923 a03e 1324 ac3d 9ba4 463e
00000130: 33c0 043f 764c 373e 28c6 00bf 61c4 d1bc
00000140: 6b90 98be ff0b 27bc 9e45 983c cc70 2ebe
00000150: 178d 563e fad8 d8bd 7542 8cbe b81b 763e
00000160: c5b1 aeba 6604 873d 4f8d 863e d793 5fbe
00000170: 4e84 96be c4d9 8e3e 3327 4dbe 9862 e6be
00000180: 00c0 c73e 96a9 463e 1770 33bd 8f41 d73d
00000190: 97bc 0b3e c92c 83be 2851 823e f7e5 84bd
000001a0: 3190 01bf 59bd 8e3d b907 903e cb76 7e3d
000001b0: 9ca1 c2bd 160b 5dbe 18a7 8ebe 359d 303e
000001c0: aab4 5c3e 4772 4bbe 0e86 6e3e 4119 e53e
000001d0: c709 973e a973 30bd 82c4 90be 2688 e9be
000001e0: efc3 923d 72be ac3e 44e1 b93e 5c6e a5bd
000001f0: c9eb 043f a877 7e3d d39c 48be 8d56 99bd
00000200: 26e7 8abd 8ae6 763e d979 e23d 2d15 a23e
00000210: 9dbf 35be c044 ae3e abb0 a73e 4c9d 223e
00000220: e1fa 483e 3e66 943e 4c1d 56be f6fb 0ebe
00000230: 6838 e43d 7bea 21be 147b 4fbe 35a9 d83d
00000240: ded2 1d3e 00a4 143e 4d80 e93e ee78 e8bd
00000250: c928 d23d 4d07 e03e 0b32 debe d817 b2bc
00000260: a870 233d 7493 95bb fb08 58be 6673 50bd
00000270: 0492 babe 620a 7dbe 410c 813e c7c8 e4be
00000280: e6eb c0be 4cdb 883d bca1 8d3e ad24 3d3e
00000290: 9e5f dabc 3529 363d cbfb 58be 369f d73a
000002a0: 5303 8cbe 2f56 75be 3485 133e 62de b03e
000002b0: f99b f83d 21ac 803e 9933 65be 1860 04bf
000002c0: 8329 8dbd 3fb0 10bf a112 66bf 1e58 603e
000002d0: 28cc 143e efca 1e3d abaf 67be 37fa 3fbd
000002e0: 9ac4 85be faa4 d73d 667f cbbd c4c6 29be
000002f0: cdeb 323e 986a 72bd 04d1 3f3c 190d f4bd
00000300: a181 dcbd 2730 33bd 3a74 78bc e0ce 1fbe
00000310: 4922 c6bd fada 5fbe 2626 c63b 5f04 8bbe
00000320: d689 cf3a 271e aabe 1702 d73e d851 5d3e
00000330: 2fe4 debc cc67 133d a649 4cbd 516f a8be
00000340: aab6 09be 73f7 f03d 64b5 4bbe 2ab1 2d3f
00000350: 0bd4 ff3e d0db aabd f723 bb3e 90d5 833e
0.16324766 -0.095724545 0.06136573 0.101352036 -0.29655856 0.21461736 -0.11140707 0.08786056
0.14602429 -0.07906035 -0.077772975 0.10076641 -0.22446771 -0.61692363 -0.14431864 -0.29210544
-0.15138055 0.115914024 0.34950984 0.23741785 0.24743871 -0.14228652 -0.26433963 0.024350526
-0.10662921 0.06777623 0.4246407 0.24601595 -0.09636452 0.124826804 0.10721119 0.18754598
0.060501475 -0.1588569 -0.21606703 -0.20567891 0.5078578 0.20007248 0.17271736 0.04773576
0.1436293 -0.31226116 0.07172229 -0.28241554 -0.56362975 0.33790877 0.10507262 0.1647204
0.11130852 0.0007479756 -0.32122666 -0.030757107 -0.048078846 -0.3548214 0.108806714 0.066832826
-0.121065445 -0.26318595 -0.001067828 -0.06582862 -0.28002974 -0.040076397 -0.026022559 0.34193537
0.16654228 0.07182323 0.006487566 0.29340324 -0.046428174 -0.47108564 -0.0832556 -0.18988259
0.34587464 0.31277397 0.08405318 0.1939873 0.5185577 0.17900261 -0.5030236 -0.025606336
-0.29797682 -0.010195731 0.018587884 -0.17035216 0.20952259 -0.1058826 -0.27394453 0.24034011
-0.0013328126 0.06592636 0.26279685 -0.2183374 -0.29397815 0.27900517 -0.20034485 -0.44997096
0.39013672 0.1940063 -0.04380807 0.10510551 0.1364616 -0.25620106 0.25452542 -0.06489175
-0.50610644 0.06969709 0.28130892 0.06212501 -0.09503481 -0.2158626 -0.27861857 0.1724747
0.21553293 -0.19867812 0.23293325 0.4474583 0.29499647 -0.043079052 -0.28274924 -0.45611686
0.071662776 0.33739048 0.36304677 -0.0807769 0.5192228 0.06212583 -0.19591074 -0.074872114
-0.06782369 0.24111381 0.11058397 0.3165678 -0.17748876 0.34036827 0.32751974 0.15880316
0.19626953 0.28984255 -0.20909613 -0.13963303 0.11143571 -0.15812103 -0.20261794 0.10579149
0.1541247 0.14515686 0.45605698 -0.113511905 0.102616854 0.4375557 -0.43397555 -0.021739885
0.03990236 -0.004564697 -0.21097176 -0.050891303 -0.36439526 -0.24710992 0.2520466 -0.4468443
-0.37679976 0.066824526 0.27662456 0.18471022 -0.026656922 0.04447289 -0.21189801 0.0016450647
-0.27346286 -0.23958658 0.14406282 0.34544665 0.121391244 0.25131324 -0.22382964 -0.5170913
-0.06892683 -0.5651893 -0.89872175 0.21908614 0.14531004 0.03876775 -0.22625606 -0.046869483
-0.26126558 0.10529514 -0.09936409 -0.1657973 0.17472763 -0.059183687 0.011707548 -0.11916561
-0.10766912 -0.043747094 -0.015164429 -0.1560626 -0.09674508 -0.21860877 0.006047028 -0.27151772
0.0015833925 -0.3322613 0.41993782 0.21613252 -0.027208416 0.03598766 -0.049874924 -0.32897428
-0.13448587 0.11765947 -0.19893414 0.67848456 0.49966463 -0.08342707 0.36550876 0.25748873

module.feature.conv0.bn.weight f4 [8]
00000000: 98d8 2e3f e010 a43f 63dd 723f f0cd 873f
00000010: 3e54 e53e 3ed4 f63e d0cf 583f ca90 2d3f
0.68299246 1.281765 0.9486906 1.0609722 0.44790834 0.48208803 0.84692097 0.67799056

module.feature.conv0.bn.bias f4 [8]
00000000: 20b5 cd3e e601 2a3f 3e9e 3d3f c0cc a03f
00000010: c538 af3d 5a1f 2ebe 5304 1bbe 4a28 af3c
0.4017725 0.66409147 0.74069583 1.2562485 0.0855575 -0.17004147 -0.15138368 0.021381516

module.feature.conv0.bn.running_mean f4 [8]
00000000: e128 c8bd 01a5 983b afbb 86bc 49b8 77bc
00000010: fa9f 003f 2e3e 18bd 25a5 edbe 0095 a3bc
-0.09773422 0.004658342 -0.016446916 -0.015119621 0.50244105 -0.037168674 -0.46415058 -0.01996851

module.feature.conv0.bn.running_var f4 [8]
00000000: 4eb9 753c 6a71 653c 7985 af3c bf56 313c
00000010: 1d94 8d3e dfa3 003d 8a6f 7e3e dc1a e53c
0.014997793 0.014004091 0.02142595 0.010823905 0.27652064 0.03140628 0.24847236 0.02796691

module.feature.conv1.conv.weight f4 [8, 8, 3, 3]
00000000: b31e 33be 7d29 9cbe 792e 9dbe 0465 bdbd
00000010: 3b88 723c bba9 8b3e 1244 f23d 4d37 e73e
00000020: 97c3 a43e 0f6a 8fbe f979 d7bb 4ac2 8a3c
00000030: 4e1f 473e 3287 d73e 118b 79be c4d7 6b3e
00000040: 560f 713e 4134 b0bd dc64 12bd 5e16 ef3d
00000050: d10c 1fbe c899 593e 0c0e b93e 0681 463e
00000060: bf88 82bd 3496 bbbd 2bce a2bd a98d 4abe
00000070: b636 94be beb7 85be 063b dabe 9983 25be
00000080: 9fbb 67be c937 ba3e 5ab0 0d3f a055 a6bd
00000090: b790 4a3a 0990 f03b 04f6 8abc 21c1 72be
000000a0: a415 02be b368 a73b 8b59 a8be 8b1a 97be
000000b0: 33dd 23bd e484 cc3e 31be 483e cbbe c53e
000000c0: c894 4d3c ee12 cdbd 5625 8a3e ceb0 a2be
000000d0: 2fdd 3b3d 2c1c 403e ffda c83d 1603 583e
000000e0: 3e92 2a3e 0440 9c3e 3d43 9a3e 5c4f 853e
000000f0: 03c4 483d e353 7e3e a677 103e 73a0 393e
00000100: 1687 ec3d d05a 57bb ec52 213e 8e46 03be
00000110: 648d 89be d994 1bbe ed23 8cbe 4ae8 3e3e
00000120: 8d26 3d3e 370e 8e3e 5c57 533e 0058 34bd
00000130: 3fc8 2abd 7d4b d8bc da8f 8b3d 3644 3ebe
00000140: 738f 77be c1a3 18bf 3334 23bf 65d0 c43d
00000150: 6485 43bf 7106 57bf fb89 37bd f415 4bbe
00000160: 973b e4bd 2f02 1c3e 5e2f 98be ff15 26be
00000170: efc7 ddbd acb3 fc3d bd36 2b3d cd4c e83d
00000180: 1943 e53d cc79 a83e 1104 d23e 9c8e cc3c
00000190: 4a63 1a3e da76 ff3c f4c9 7dbe 483f 863d
000001a0: dbad b53e b37c b2be 76ac aabd 83d8 be3e
000001b0: 740f ccbc 1a2d 05be d0dc 50be ed55 f73c
000001c0: 2014 a8bd f6d6 a6bd 45c0 063e 05fb dd3d
000001d0: f923 f53d 7475 b3be 7b41 00be e6c6 353e
000001e0: 3e24 a7be 2cbb 44be 275f 3b3e 47ec 89bd
000001f0: 6204 38bd e24d 443e 8370 fb3c c739 883e
00000200: 80bd 3a3e fcb0 963b 187c dbbc 8531 2abc
00000210: 8ced 65be fe65 53be a0ae 9bbc 4176 21be
00000220: f39b f4bd 5c1d 01be aa27 5c3e 4de2 7d3e
00000230: 348f bb3d 8de2 963e f1cb 803e 2dd0 353d
00000240: b6ab b2be 477f a0be 8c26 213d efab 7dbe
00000250: 5731 79bd 28bd 193e e0cd 84bc d71f 433e
00000260: 53dd fd3e e968 84bd e6ec 193e 2da1 913e
00000270: 0fc3 123e 6f62 bb3e 9004 9d3e 17b9 973e
00000280: c9b9 953e cdf9 563e 6f2b af3c a1d3 64be
00000290: 4b1a 1dbe e640 6fbe 5039 46be d296 a4be
000002a0: e2f0 41be c2dc 51be 9fa9 a0be 4ae3 833e
000002b0: aec8 573d 41c7 f4bd e2e1 e93d 0f6d 9a3e
000002c0: 6b4b 223e 92e2 a4bd 33f6 753e 8244 373e
000002d0: bf51 423e bce8 353d dc89 d33d a483 493e
000002e0: 4435 1fbc a8d0 e93d c8a5 ee3d c8a3 febc
000002f0: 1240 373d 0944 513e 6175 503e 50e1 9a3e
00000300: dd63 b13e eba1 1a3e 5eb6 5a3e 6392 c23e
00000310: dfd5 893e 54e8 0e3e bd26 8c3d d225 c63d
00000320: 5b70 7e3d 4fb6 203e 35ff 5a3c fc5b 0e3e
00000330: 11a2 fa3d af27 ad3e c409 a43e 6c8e 26bd
00000340: b09a 90be 1069 5bbe 9f8c 43be 77a2 dfbe
00000350: be44 bfbe 963f a3be 5f4c fcbe 9e61 ffbe
00000360: 077e fd3c f578 c93d dfc8 253d 7ecc acbd
00000370: ab81 203e 7cb1 febd acd9 6d3d b448 ca3d
00000380: 0323 68be afe5 0cbd 660c cbbe 33e6 3cbe
00000390: 24af f83e f678 01be 0288 c53c fd39 b93e
000003a0: bb38 9abe 4e01 793d 85b2 703e 8a50 2c3e
000003b0: c437 3c3e 34c6 aabc 2d69 fa3d e97c 053f
000003c0: 2047 a8be 1a02 47bf 194c d43d 70c2 b3be
000003d0: 3e64 653e ceaf 5d3b b4ef 5d3e 251a 2e3d
000003e0: 52a5 463e b648 833e 099f cbbe f430 8abe
000003f0: bb4f 4c3c ad6e 47bc 0ed8 253d b6ce ddbd
-0.1749218 -0.30500403 -0.30699518 -0.09247783 0.014802988 0.27277932 0.1182939 0.4515938
0.32180473 -0.28010604 -0.0065758196 0.016938347 0.19445536 0.42095333 -0.24369456 0.23031527
0.23541006 -0.08603717 -0.03574072 0.11674188 -0.15532233 0.21250069 0.3614353 0.19385156
-0.063737385 -0.09159508 -0.0794948 -0.19780602 -0.2894799 -0.26116747 -0.42623156 -0.16163482
-0.22630166 0.36370686 0.55347216 -0.081218004 0.00077272527 0.007341389 -0.016963013 -0.23706485
-0.12703568 0.0051089167 -0.32880816 -0.29512438 -0.040005874 0.39945138 0.19603802 0.38622126
0.012547679 -0.10013376 0.2698161 -0.31775516 0.045865234 0.18760747 0.09807395 0.21094927
0.1665735 0.3051759 0.30129424 0.2603711 0.049015056 0.24836688 0.14108142 0.18127613
0.11549203 -0.0032860525 0.15754288 -0.12819883 -0.26865685 -0.151935 -0.2737116 0.18643299
0.18471737 0.2774522 0.20638794 -0.044029236 -0.041694876 -0.026403183 0.06814547 -0.18580708
-0.24175815 -0.5962487 -0.63751525 0.096100606 -0.7637541 -0.83994204 -0.044809323 -0.19832593
-0.11144178 0.15235208 -0.29723638 -0.16219328 -0.1082915 0.12338957 0.04180025 0.113427736
0.111944385 0.32905424 0.41018727 0.024970345 0.15076938 0.031184603 -0.2478407 0.06555039
0.35484204 -0.34860763 -0.083336756 0.3727456 -0.024909712 -0.13005486 -0.20396733 0.03019234
-0.082069635 -0.08146469 0.13159283 0.10838894 0.11969752 -0.35050547 -0.12524979 0.17751655
-0.32644838 -0.19212025 0.18298016 -0.067345195 -0.044926055 0.19170335 0.030693298 0.2660658
0.18236351 0.004598735 -0.026792571 -0.010387783 -0.22453898 -0.20644376 -0.019004166 -0.15767767
-0.119438075 -0.12608856 0.21499506 0.24793358 0.09158173 0.2946972 0.25155595 0.044387985
-0.3489663 -0.31347105 0.0393434 -0.24772619 -0.06083807 0.15013564 -0.01621145 0.19055115
0.4958292 -0.064653225 0.15031776 0.2844328 0.14332221 0.36598536 0.30667543 0.296334
0.29243305 0.20993729 0.021383015 -0.22346355 -0.15342061 -0.233646 -0.193578 -0.32146317
-0.18939546 -0.20494369 -0.3137941 0.25759345 0.052681617 -0.11952067 0.11420037 0.3016133
0.15849082 -0.08051027 0.24019699 0.17897227 0.18976496 0.044411406 0.10329029 0.19679123
-0.009717289 0.11416751 0.11652714 -0.031083956 0.044738837 0.2043611 0.20357276 0.30250025
0.34646502 0.1510083 0.2135863 0.3800231 0.26920983 0.13955814 0.06843326 0.096751824
0.06211887 0.15694545 0.01336651 0.13902277 0.12237943 0.3381934 0.320387 -0.040663168
-0.28243017 -0.21426797 -0.19096611 -0.43678638 -0.37357134 -0.3188445 -0.49277017 -0.49879164
0.030943884 0.09837524 0.04047477 -0.08437441 0.15674464 -0.12436196 0.058068916 0.09877148
-0.22669606 -0.03439873 -0.39657897 -0.18447189 0.48571122 -0.12643799 0.024112705 0.36177054
-0.30121407 0.06079226 0.235056 0.16827598 0.18380648 -0.020846464 0.12227092 0.5214372
-0.32866764 -0.7773758 0.10366077 -0.35109282 0.2240152 0.0033826712 0.2167347 0.042505402
0.19399002 0.25641412 -0.39769772 -0.26990473 0.012470181 -0.012172383 0.04048925 -0.108304426

module.feature.conv1.bn.weight f4 [8]
00000000: 6f1f 803f 07af 6f3f 34a9 173f 15a2 b83f
00000010: 4088 9b3f 7211 4a3f 4765 6e3f b23d 3e3f
1.0009593 0.93626446 0.5924256 1.4424464 1.2150955 0.7893287 0.93123287 0.7431289

module.feature.conv1.bn.bias f4 [8]
00000000: 4fd5 e93e f166 263e c672 f63d f17e 7cbe
00000010: b389 0f3f c88b 643e cb20 d23e bf5b f13e
0.45670554 0.16250207 0.1203361 -0.246578 0.5606949 0.22318947 0.41040644 0.4714031

module.feature.conv1.bn.running_mean f4 [8]
00000000: d5c4 393e 023b 97bf a377 b23f baff 4e3c
00000010: 4300 a1c0 d8d6 483f e0e1 9d3e a1b6 4a40
0.18141492 -1.1814883 1.394276 0.012634212 -5.031282 0.78452826 0.3083639 3.1673968

module.feature.conv1.bn.running_var f4 [8]
00000000: 7221 1840 1b84 d740 625c f640 67a6 443f
00000010: 42dd 2041 9388 0f41 0bb0 8c40 705f 8140
2.3770413 6.734876 7.698777 0.7681641 10.054018 8.970843 4.3964896 4.0429

module.feature.conv2.conv.weight f4 [16, 8, 5, 5]
00000000: 275b d3bd ec8e 9dbd f1a5 2bbe 921c 75be
00000010: 3c38 2ebe 7b6d 1ebe 9dd5 3fbd 7f90 5abe
00000020: 1a20 b6be ab9e 9ebe 5177 f73d 7a4e 0f3f
00000030: 674a 293e 241d 21be bf37 1dbe 7229 d63e
00000040: 5d39 1b3f 7324 8f3e 1e6e 10be 3a37 74be
00000050: 66bb 953e 5dad 963e 1d76 593d 6aa5 3dbd
00000060: bbf8 82be a034 cb3d 55b2 873d 46b9 8bbd
00000070: 5439 8abd 3ab6 3abe de5c 8e3d 8bc4 77bd
00000080: 9b08 4abe 619d 98be 014f afbe d8c2 563e
00000090: 33b0 833d ad28 0f3e bcad 303e db50 7dbc
000000a0: fd10 e53e 3ce8 743e 75ed 8f3e cee8 c4bd
000000b0: 2595 f8be e856 2c3f 7305 243f f378 fc3e
000000c0: 5832 733d aea7 57be 61a6 d0be 356e 06bf
000000d0: b5ae 00bf f84d 96be 887f 3ebe a09e 5fbe
000000e0: 9d8c e8be ce31 dabe e3e2 afbe 1ffa 1bbe
000000f0: 05e9 6bbe 78fb 8ebe 12b2 bfbe 3a77 90be
00000100: b4eb 31be ebea 77be 6723 69be 7c34 f4be
00000110: 5161 c2be 3585 81be ee64 e63c 6009 023e
00000120: 19a0 dfbd a93c 06be 5227 f6bd e876 e3be
00000130: 7a36 64be ee84 74be f102 7dbe 5ffa 82be
00000140: e361 0fbf 03de 0abe 5711 5ebe 1c1e 60be
00000150: f64b a83c fd28 963e 306d c23e fb19 8f3e
00000160: aa1f cdbe 50f4 c4be b498 763e 6712 bc3e
00000170: 7400 843e 29c0 a5be c2f0 a0be de9c 1abe
00000180: 8374 d6be 09d8 a0be ad7f c9be 3af0 37be
00000190: bd65 e4bd a148 0bbd 34c6 a4be e8b2 1dbe
000001a0: af9f 47be 075f a5ba e690 abbd 0771 b0be
000001b0: 8fb1 30be 7f42 39be 2437 5c3c 802a 113e
000001c0: 0914 e43b 81c4 85bd e509 73be 9f70 f03c
000001d0: 2b90 9b3e 2734 113e b5fd 953c 127d 3dbe
000001e0: 4cc9 653e 7af6 843e 143b b2bc 0654 263d
000001f0: 7698 a2bd 757f c5b9 841f 0e3d e50d 5fbd
00000200: 58b8 823d 2e53 103e e21d b2bd afb4 963d
00000210: 0ab6 c9bc 2a2e e7bb 3d79 133e 274f aabc
00000220: 2953 31bd 48b0 3abd a018 103d 5153 463d
00000230: 9843 05be e217 bcbd b290 1abe f419 553d
00000240: 9025 733d 1e00 d5bd 41d3 9dbd 0ce1 563a
00000250: f7f9 3dbc 4e28 8e3d 1e9c e63d 237f de3d
00000260: 2933 e83d fb62 66bd d0c5 dcbd bd31 e93d
00000270: 32c1 b53d ce1a 883d eac0 0ebd f358 fdbd
00000280: ce02 923e aea6 a53e 9403 6e3d e55c ddbd
00000290: 8a79 12be 5e7d 833e f9a6 963e 367f 373e
000002a0: 1bbe a9bc d67a 82be 7bda c1bc 2f31 ac3d
000002b0: 7366 723e bc78 4f3d fd69 02be d15b 903e
000002c0: 7efb 173e 3bd1 e8bc 69cd dd3d b020 f73d
000002d0: d678 12bd cb4c a9be d852 dbbe c917 8abe
000002e0: 7397 7cbd e538 9d3d c317 3ebd 6c07 55be
000002f0: 173b 8abe 977f 7ebd 99dc 283e 9cd9 293d
00000300: e819 d8be 0454 e4be 426c 94be bdf1 343e
00000310: 6a4d 683d cf68 8dbe 2b03 a1be e2a5 c4bd
00000320: 91a7 643e 239a 193e 8ee3 16bd cd0e 69bd
00000330: 49e8 a6bd 6254 14be 0e7a 9ebd 97fd 0cbe
00000340: 6eb6 71be be93 b0bd 3293 d8be 76f5 acbe
00000350: d198 7fbe 0e08 44be 8a3e cfbd 9213 c4be
00000360: 6b67 9dbe d8ff 84be 3515 20be b4d5 7ebd
00000370: 6f2b 85be c5ec 47be 7f54 d7bd c136 d6bd
00000380: 6623 df3c 26bc c9bc 59d9 893c 7bae 19bd
00000390: 68f8 56be 1760 4abe 1fd6 29bd 4254 f2bd
000003a0: 9850 8ebc 3318 2bbe 535e 21be 07e7 763d
000003b0: 3e68 efbd 446f 38be 26a7 c0be 5be2 d2be
000003c0: 0377 9fbd 9ebb a6be b543 adbe eebd e7be
000003d0: d07e d7be f8f7 98bc eca1 72be 82c5 80be
000003e0: d677 a5be f628 88be f8b8 e4bd df13 aabd
000003f0: 9d01 19be 4015 01be 4e25 f23c 03a1 89bd
-0.1032012 -0.07693276 -0.1676252 -0.2393668 -0.17013639 -0.15471451 -0.046834577 -0.21344183
-0.35571367 -0.3098043 0.12083305 0.5597912 0.16532288 -0.15733773 -0.15353297 0.41828495
0.60634404 0.27957496 -0.14104506 -0.23849192 0.29244536 0.2942914 0.053091157 -0.04630033
-0.2558039 0.09922147 0.06625811 -0.068224475 -0.06749216 -0.18233576 0.06951307 -0.060490172
-0.19729845 -0.2980757 -0.34239963 0.20972764 0.06430092 0.1398036 0.17253774 -0.015461172
0.44739524 0.23916715 0.28110853 -0.096147165 -0.48551288 0.6732011 0.64070815 0.49311027
0.059374183 -0.21060058 -0.40751937 -0.5251191 -0.5026658 -0.2935636 -0.18603337 -0.21837854
-0.4541978 -0.42616123 -0.34352788 -0.15232132 -0.23038109 -0.2792623 -0.37440544 -0.28215963
-0.1737507 -0.24210708 -0.22767411 -0.47696292 -0.37964872 -0.2529694 0.028124299 0.12698889
-0.10919208 -0.13109078 -0.120192185 -0.44426656 -0.22286406 -0.23878834 -0.24708153 -0.25581643
-0.5600874 -0.13561253 -0.21686302 -0.21886486 0.020544033 0.29328147 0.37973928 0.2794951
-0.4006322 -0.38467646 0.24081689 0.3673279 0.25781596 -0.3237317 -0.31433684 -0.15098903
-0.41885766 -0.31414822 -0.3935522 -0.17962733 -0.111522175 -0.03400481 -0.32182467 -0.15400279
-0.19494508 -0.0012616821 -0.083772466 -0.34461233 -0.17255233 -0.18091772 0.013440881 0.14176369
0.006960396 -0.06531621 -0.23734243 0.029350577 0.3038343 0.14180051 0.018309454 -0.18504742
0.2244007 0.25969297 -0.021756686 0.040607475 -0.07939236 -0.0003766973 0.034698024 -0.05445661
0.06382817 0.1409423 -0.08697106 0.073586814 -0.024622936 -0.0070550637 0.14401717 -0.020789696
-0.0432922 -0.04557827 0.035179734 0.0484193 -0.13014066 -0.09184243 -0.1509426 0.052026704
0.059361994 -0.10400413 -0.07706309 0.0008196987 -0.011595241 0.06941281 0.11260246 0.10864093
0.11337883 -0.05624674 -0.10779917 0.1138644 0.0887474 0.066457376 -0.034851946 -0.12370481
0.28517765 0.3235373 0.05810888 -0.10808734 -0.14304176 0.25681585 0.29424265 0.17919621
-0.020720532 -0.2548434 -0.02366375 0.084078185 0.23671894 0.05065225 -0.12735744 0.2819505
0.1484203 -0.028420081 0.108301945 0.120667815 -0.03575977 -0.330664 -0.42836642 -0.26971272
-0.06166787 0.076768674 -0.04640938 -0.20803612 -0.26998207 -0.062133398 0.16490401 0.041467294
-0.42207265 -0.4459535 -0.28988844 0.17670341 0.056714453 -0.27619025 -0.3144773 -0.09601952
0.22329547 0.15000205 -0.036838107 -0.05689888 -0.08149774 -0.14485314 -0.07738124 -0.13768612
-0.23604748 -0.086219296 -0.422998 -0.33781022 -0.24960639 -0.19143698 -0.1011935 -0.3829618
-0.30742964 -0.25976443 -0.1563309 -0.062215522 -0.260097 -0.19523914 -0.10514163 -0.10459662
0.027238559 -0.024625849 0.016827272 -0.037519913 -0.20993197 -0.19763218 -0.041463967 -0.11832477
-0.017372414 -0.1670845 -0.15758638 0.06027892 -0.116898045 -0.18011194 -0.37627524 -0.4118832
-0.077863716 -0.32565016 -0.3384072 -0.45262092 -0.42088938 -0.018672928 -0.23694581 -0.25150687
-0.3231799 -0.2659375 -0.111680925 -0.08304571 -0.14942022 -0.12605762 0.029558804 -0.06720164

module.feature.conv2.bn.weight f4 [16]
00000000: 4527 923f 7038 733f d2b6 953f 0cca 643f
00000010: 919d bc3f d4ff 703f a1f3 7b3f 404a 463f
00000020: 2fb5 603f 50f8 8e3f 3700 723f 6ca5 4f3f
00000030: 4195 993f fc9f 403f 885c 913f 1d96 9b3f
1.1418234 0.9500799 1.1696417 0.893708 1.4735585 0.9414036 0.98418623 0.77457047
0.87776464 1.1169529 0.9453158 0.8111179 1.1998674 0.75244117 1.1356363 1.2155186

module.feature.conv2.bn.bias f4 [16]
00000000: 1395 10be 2c0b 6abd c607 3b3e 903e 60be
00000010: 4ec6 cc3e 7fd2 c23e d666 fd3d e4a7 ac3e
00000020: b3cb 5e3e 7b47 87bd 7fd3 933d 2754 373d
00000030: 70a8 bb3c dbd2 e73d 72ba 213f b96c 143f
-0.14119367 -0.05713956 0.18264684 -0.21898866 0.39995044 0.3805122 0.1237313 0.3372184
0.21757393 -0.06605431 0.07218074 0.04475799 0.022907466 0.11319514 0.6317512 0.579784

module.feature.conv2.bn.running_mean f4 [16]
00000000: 8d64 4fc0 e2dc dec0 fa1e 87bf e6dc 25c0
00000010: 3b51 35c0 64bd 303f ac8e e540 a4a2 6cc0
00000020: 32ca 87be 4bb8 56be 36e2 4140 bce2 d9c0
00000030: 8f46 01c0 4b16 30c1 eeec c6bf a366 3bc0
-3.2405121 -6.964463 -1.0556328 -2.5916076 -2.833083 0.6903899 7.173666 -3.6974268
-0.2652145 -0.2096874 3.0294318 -6.8089275 -2.0199316 -11.005443 -1.5541055 -2.9281394

module.feature.conv2.bn.running_var f4 [16]
00000000: 335d 9841 63ae 0c42 d7c8 3f41 97d7 ad41
00000010: defc 5e41 1a53 b241 5f0c 5242 dece 3842
00000020: 2bdb dc41 9c8f 6741 5e26 9942 ca72 df41
00000030: 737f a742 fb9a 9242 ec01 b841 2531 d041
19.045507 35.1703 11.986533 21.730268 13.936735 22.290577 52.51208 46.20202
27.607016 14.472561 76.574936 27.93105 83.748924 73.3027 23.000938 26.023996

module.feature.conv3.conv.weight f4 [16, 16, 3, 3]
00000000: 0226 91be 90af 123e c4da 92be 941c 953d
00000010: 0269 1e3e 42af 24be d7ff 303e dab4 833d
00000020: 5024 a4ba 9cf3 f4be 3234 f4be dec4 0ebd
00000030: 23c5 f5be b86a 00bf 9d81 26bd d1ad a8be
00000040: 8491 9fbd 7bb4 ec3c e683 73be b757 983c
00000050: f8aa 7ebe 13c9 1e3e a697 723d 8bc7 0b3e
00000060: ae85 743e 5a0c 4bbe 0cd4 60bc d9ce 7b3d
00000070: 84f4 83be 2adc 09bd 1762 94be 7182 04bf
00000080: 90bd 27bd b88e 9a3b 67e1 38bc e56f 753c
00000090: 410c c9be 3299 d33c 523d 893d 5a44 e63d
000000a0: d325 b13e 7c13 e23d cac8 57be 24de debe
000000b0: 1dee 68b8 8fc4 1e3e 5536 223e 3584 443c
000000c0: 7ab0 1d3e be4a f7bc fed3 453d e7e7 8ebd
000000d0: 1042 7bbc aa47 12bd 4b3d 3b3e 1e31 7e3e
000000e0: b08c 8b3e 25fb 8e3e 61c6 983e 441c 6d3e
000000f0: 6f06 803e beb8 533e 78a3 05bd 612b 623e
00000100: 8b2e 803e c03f 843b b1a0 5c3e 7bb2 e6bb
00000110: ef0b b63d 9337 dabc 9aa2 d0bd 804e b2bd
00000120: e13b e33d c8de 31be 809c a4be d563 94bc
00000130: b475 83be 4c06 64be 5af6 073e d739 c43e
00000140: 77c3 113e f0fd cfbd 03ad 033d 2058 673e
00000150: 9c99 833e 8838 893e 0971 383e df77 ddbe
00000160: efda 9abc de9e 15be 222c 0bbf efbf 16be
00000170: 5c6d 0f3d e071 8ebd ec84 233e 6f1f b73e
00000180: 0b2c 303d 3808 703e 6848 8c3e af81 023d
00000190: 41cf 003d aa36 7b3e 9719 b9bc 52bd b5be
000001a0: 8700 8f3e b992 39be 8be5 4fbe 9516 0b3e
000001b0: 8dbe 0e3e 29ab 1b3e 36b7 9bbd 2ca0 9f3d
000001c0: c99d efbd a083 b1be 4dc0 20be e58d b8be
000001d0: 291c fdbe bc54 91be 21de 6dbe 0e5f c9be
000001e0: aced c6bd 2b38 73bd b98f 82bd 2860 ec3d
000001f0: 111c dc3d ce1f 17bd 6d8c 2bbe d759 17be
00000200: 6a57 c9be 620e 323d 48d4 9d3e 5027 06be
00000210: 2ec7 bb3e fb30 f63d 0423 d7bc cac8 14bf
00000220: 2030 a9bd a510 8d3d 3bcb 40be 7f31 343e
00000230: ca66 543e 922d 5b3e 8710 073e 85d2 503e
00000240: cf1c 97be e9a4 0d3b b570 8c3e 4b82 bcbe
00000250: 666a 6cbe 9dd4 863e 6039 eabd 71ad 59be
00000260: 9874 093d 0baf ca3d f21f 0c3d 63c0 20be
00000270: 1886 d83c da89 3ebe 7f57 6abe 6c1d 81bd
00000280: 92b5 7dbe 9d9a 7abe 53b8 14be 11a6 f1bc
00000290: 70a1 9cbe 0d69 efbd ce8d 903c 5b34 873d
000002a0: 046d 0bbe 7659 29bd d0a9 82bd ace2 fb3d
000002b0: 24e8 213e 6259 c9bc aad5 abbd 6d3a 49be
000002c0: d551 333b 23aa 4cbe b4ae a3bd 1a7d 863b
000002d0: 836c 80be 0f54 733e 8af1 9ebc e2a5 47be
000002e0: f31a c03e e702 e13b 37fc 57be 1a99 383c
000002f0: cc0f a2bd 2f55 adbc 5a18 7f3d 7363 93bb
00000300: 6aae 80bd 172e 0e3e dbde 063d 2895 fbbd
00000310: d2dd 40be ce25 1abe fe63 d7bd c5fd 143d
00000320: c72e 943e 85e5 2fbe 849a 953d 7566 5c3e
00000330: 9886 00be 4b8b b13b 9ac5 5cbd 9191 1abe
00000340: 59d8 f2bd 1e93 183d 51f7 d7be d7d6 e5be
00000350: 8459 77be ad62 bbbe 4f53 f4be 2831 a1be
00000360: fa12 703e e06e 273d 77f0 96bc 6ee3 143e
00000370: b33c dbbc 3233 3ebe 1334 3b3d e589 a33b
00000380: f672 963c 1f17 633e c00c 59be 072e 853b
00000390: 9ebd bb3d 86bc d1bd 24a6 49bd bed8 133d
000003a0: 13a0 893e 68c0 f93d f74f 49be 99e8 78be
000003b0: c1fc 0bbe e716 7bbe 5092 97be 6864 a1bd
000003c0: bbe9 2ebd 4601 133e fa30 bf3d cd44 4e3e
000003d0: 5b60 aebb 0d42 343c 305d c93d 3f25 03bd
000003e0: ad14 1d3e 2004 90be 9fd2 e9bd 7b1f 0ebd
000003f0: c230 f23d e6ad ef3e 7507 e33e ae3d a83e
-0.2834931 0.14324784 -0.2868253 0.072808415 0.15469745 -0.1608248 0.17285095 0.06430979
-0.0012523029 -0.4784211 -0.47696072 -0.034855716 -0.48001966 -0.5016284 -0.040650953 -0.3294511
-0.07791427 0.028894654 -0.23780784 0.018596513 -0.24869907 0.15506391 0.059226654 0.13650338
0.2387912 -0.1982893 -0.013722431 0.061476562 -0.25772488 -0.03365723 -0.28981087 -0.5176154
-0.040952265 0.0047167204 -0.011284209 0.014980291 -0.3926716 0.025829885 0.06701149 0.11243506
0.3459917 0.110388726 -0.21072689 -0.43528855 -5.553487e-05 0.15504669 0.15841039 0.011994411
0.15399352 -0.030187007 0.048297875 -0.069778256 -0.015335575 -0.035712875 0.182851 0.24823424
0.27255774 0.27925983 0.2983885 0.23155314 0.25004908 0.20675942 -0.0326266 0.2208686
0.2503551 0.00403592 0.21545674 -0.0070403195 0.08888995 -0.026637828 -0.10187264 -0.08706379
0.11095405 -0.1737014 -0.3215065 -0.01811401 -0.25675738 -0.22268027 0.1327757 0.38325378
0.1423472 -0.101558566 0.03214742 0.22592211 0.25703132 0.26800942 0.1801187 -0.43255517
-0.018903224 -0.14611384 -0.54364216 -0.14721654 0.035016403 -0.06955314 0.15968674 0.3576617
0.043010753 0.23440635 0.27398992 0.031861957 0.031447653 0.24532571 -0.02259521 -0.35496002
0.2793009 -0.18122377 -0.20302407 0.13582833 0.13939877 0.15202011 -0.07603304 0.07794222
-0.11700017 -0.34670734 -0.15698357 -0.36045757 -0.49435547 -0.2838496 -0.23229267 -0.39330333
-0.09713301 -0.059379738 -0.06375069 0.11541778 0.10747541 -0.036895566 -0.16752787 -0.14780365
-0.39324504 0.043470748 0.3082602 -0.13100934 0.366754 0.12021061 -0.026261814 -0.5811888
-0.08261132 0.0688794 -0.18827526 0.17597006 0.20742336 0.21404102 0.13189898 0.20392807
-0.29514167 0.0021613187 0.2742974 -0.36818156 -0.23087463 0.26334086 -0.11436725 -0.21257569
0.033558458 0.09896668 0.034210153 -0.1569839 0.026431128 -0.18607274 -0.2288494 -0.0630444
-0.24776295 -0.24473043 -0.14523439 -0.029498132 -0.30591917 -0.11689959 0.017645743 0.06601783
-0.13615805 -0.041345082 -0.063800454 0.122990936 0.15811211 -0.024578754 -0.083903626 -0.19651194
0.0027362008 -0.19986777 -0.07992306 0.0041042687 -0.25082788 0.23762535 -0.019402284 -0.19496873
0.3752056 0.006866801 -0.21092306 0.011266971 -0.07913169 -0.021158783 0.062279083 -0.0044979393
-0.06283267 0.1388477 0.032927375 -0.12284309 -0.18834618 -0.15053484 -0.10517119 0.036374826
0.28941938 -0.17177399 0.07304862 0.2152346 -0.12551343 0.0054182163 -0.053899385 -0.15094592
-0.11857671 0.037249677 -0.42180875 -0.44890472 -0.24155241 -0.3659872 -0.4771981 -0.31482816
0.23444739 0.040877223 -0.01842521 0.14539883 -0.026762342 -0.18574217 0.04570396 0.0049908035
0.018365365 0.22176789 -0.2119627 0.004064325 0.09167026 -0.10241036 -0.04923071 0.036095373
0.2687994 0.12194902 -0.1965941 -0.24307479 -0.13670637 -0.24520455 -0.29603815 -0.07880479
-0.04270337 0.14355955 0.093355134 0.20143433 -0.005321545 0.011002076 0.09832227 -0.032017943
0.15339918 -0.28128147 -0.11417126 -0.03469799 0.11825706 0.4681236 0.44341627 0.32859558

module.feature.conv3.bn.weight f4 [16]
00000000: 3132 7a3f 7d4a 6b3f 06c5 513f 9ebe 223f
00000010: b822 803f 157c ae3f f5b6 913f c734 873f
00000020: 3cdb 463f ad83 403f 7c6e ad3f d754 8f3f
00000030: f653 ac3f 1609 763f 2565 8e3f 78ab 983f
0.97732836 0.91910535 0.8194126 0.6357211 1.0010595 1.3631617 1.1383959 1.0562981
0.77678275 0.7520092 1.3549342 1.1197766 1.3463123 0.96107614 1.1124617 1.1927328

module.feature.conv3.bn.bias f4 [16]
00000000: edb2 923d a606 2fbd a605 9cbe afa4 17be
00000010: 4c14 95be d753 2b3f 0164 0b3f 5719 17bf
00000020: d9cf 423e e930 8bbe 8788 a63d 2a72 233e
00000030: 978d 9e3e a318 ed3d 2e5e 683e ed90 d83e
0.07163034 -0.04273095 -0.3047306 -0.14808916 -0.29117048 0.66924804 0.5444947 -0.5902304
0.190246 -0.27185753 0.08131509 0.15961519 0.309674 0.11576965 0.22692177 0.4229807

module.feature.conv3.bn.running_mean f4 [16]
00000000: 1006 32bf 2680 1ac0 1045 11c0 5504 1b3f
00000010: 468d 1040 5bfb a4bf f3f3 33c0 b8a2 9fbf
00000020: 7791 65bf 50e0 a63f cc0d 68bf 0dbb 7bbb
00000030: 409d f0bf dbd8 e7be b731 7cbe f862 c4be
-0.695405 -2.4140716 -2.2698402 0.60553485 2.2586226 -1.2889208 -2.8117645 -1.2471533
-0.89675087 1.3037205 -0.9064605 -0.0038411052 -1.8797989 -0.45282635 -0.2462834 -0.38356757

module.feature.conv3.bn.running_var f4 [16]
00000000: e13b dd40 e20e d740 3196 ec40 91c5 8b40
00000010: 6fea d740 f750 3c40 6577 5040 a4cc a640
00000020: 0da3 df40 a087 d140 9439 b640 1258 1841
00000030: 00b3 a240 009b fb40 551f 2b41 0828 c240
6.9135594 6.7205667 7.393334 4.367867 6.7473674 2.9424417 3.2572873 5.2124805
6.9886537 6.547806 5.6945286 9.521502 5.0843506 7.862671 10.695149 6.0673866

module.feature.conv4.conv.weight f4 [16, 16, 3, 3]
00000000: 9dd9 4bbe 810e 603c be11 3e3e 7777 4ebe
00000010: b7e2 28be 0c1e 233d 898c ab3b 12c3 e03d
00000020: 651a 913d fff9 03bb 8d3e 8d3e 4109 093f
00000030: 9744 6abd 31b5 1b3d b2b6 d43e 080c 553d
00000040: 9379 323e cacc b63e ce8e d93e 070c 083f
00000050: a8c9 973e 3553 aaba 5f71 b53e b796 4d3e
00000060: aeb1 a33c 6419 003e 4fbe 663e 68cd 253e
00000070: f6b1 0b3e dd25 84be 744a 4d3e 775c 0abd
00000080: 0e6c b5be 3e22 fd3d b5d2 763c 990b 393c
00000090: e273 10bc d0ca 763c b20c 26bd 25ef 6dbe
000000a0: 53d9 c1bc 0e2c d43d ed0c ab3d 4df0 e23d
000000b0: cd40 963d 9532 58be 096e 043d 5db4 933d
000000c0: c7d7 a6bd b13b a53d b2ca c23e 27fc 00be
000000d0: 904a 6d3d 5ded 0d3e 696a acbd 254a f33e
000000e0: 99cf 32be 8abb e03d adc1 333f 2b47 33be
000000f0: d09a ffbc dc57 4cbd ea44 8cbe c672 21be
00000100: 62b7 3fbc 5765 13be ed3f eabe ccb1 043e
00000110: 5b4b 633e 24fe 1cbe 3554 2cbd 0158 5abc
00000120: c4e2 b43d b522 853d c604 523e a45a 8bbc
00000130: 4f02 803e dd9a ec3e 5cd5 95be 33a3 2b3b
00000140: cc57 703e 9b4a a2be a90a eabe 75e4 19be
00000150: ac0f a7bd 1993 99be da22 71be ee56 5b3e
00000160: d113 19be 867c bdbb bc49 2bbe b700 14be
00000170: 67ad aa3e dea5 7ebe 0fb3 80be 9b33 603e
00000180: 9f85 debd 8ff1 b1bd 670e 363e 5562 1dbe
00000190: 68c8 cf3e fb87 ff3e ab37 24be 6e37 5d3e
000001a0: 8e81 ad3e 95c3 403d 11c7 82bc 0ce7 ccbc
000001b0: 2d33 c83d be6e a2be 8b9b 1c3d b8b6 39be
000001c0: 9c65 3b3e 91ec a33e a41d 5ebe e9c5 813c
000001d0: 04b6 af3e 41dd 373d 3c1b 26be 15eb 36be
000001e0: 2a05 6bbe 3c78 15be af01 c3bc d859 62be
000001f0: b452 a0be 4949 93bb bb2a 0bbe cdc2 89bd
00000200: a004 f1bc 3c0d 8cbe bb3c 803d c85e 573d
00000210: b5f7 97be c33e 0dbe 6366 093d 0468 64bc
00000220: a026 033f ab19 e83d 3720 3bbe f461 fb3e
00000230: 0084 1f3f 7e76 a93d 81b8 a33e 1acd 683e
00000240: e11c 343e ada3 963b d8e3 023e 94c6 763d
00000250: 02e1 a2bc c5f7 b93d 9bc8 42bd 26f6 c03c
00000260: 8fac 29bd 0cf7 403e 2e8e 32be 4b71 43be
00000270: fe50 943e 75c9 a23c b872 32be 9280 1f3e
00000280: 2b6c 453e 1bea 38be efa0 e2bd 6e02 cd3d
00000290: 7e26 b2bd 89ad ba3d 9a1b 66bd aa48 353c
000002a0: 1b37 983e ba3b 793d a73b 1f3e 3bbd 883d
000002b0: 77a7 15bc 8741 063e eddd acbd c979 7ebe
000002c0: 7135 703c 7df8 dc3d 6e30 48be 7a41 a93b
000002d0: 8898 86be e396 02be 6ee8 7a3e 8893 89be
000002e0: eabd babe c5a6 fdbd ab51 a8be 6117 febe
000002f0: 29ce 38be 5509 f8be cd9d a43e 53d7 a9bd
00000300: fb8e 5d3d 1805 4cbe 2e45 dabd d4f8 56bd
00000310: 7f91 4c3e 0711 303e 3219 b43d 14de 8fbd
00000320: 92fc 373e 69ff 023f 454a a1be 59b2 1ebe
00000330: 8c18 f63d 400b 17bd 967c 61be cc3b 193e
00000340: f19d 13be 138a 96bd c082 a23e fd49 0ebf
00000350: ef91 67bc 4d5a 023f 4708 253e ad2a 0cbe
00000360: d53a 9f3c 8fce 5b3e d2c5 45bd 6562 143e
00000370: e47b eb3d 5ac4 bbbd 1eec 55bc 47a1 85bd
00000380: c3d8 9fbd ed79 94be f32f c03e f6c6 03be
00000390: 345d dcbe ee2e 8f3e ae50 efbb 7757 fdbd
000003a0: d100 203e 4178 8b3c 874d 723b 0d96 3a3e
000003b0: 342c 09be cb38 98bc 36f2 913e 8173 87be
000003c0: 09bc cebd 17a3 523e 9093 7b3b 5cf8 16bd
000003d0: 9df4 2cbe 83ac 82be b54b a03e dc8b 22be
000003e0: 04fd 4fbe f75c ac3d 977a 9f3e 0348 2f3e
000003f0: a83c d6bd bced 8abe 5bbf 7dbe 9149 f13d
-0.19907232 0.013675333 0.18561456 -0.2016276 -0.16492735 0.039823577 0.005235259 0.10974707
0.070851125 -0.0020138023 0.27586785 0.53529745 -0.05719432 0.038014594 0.41545635 0.052013427
0.1742919 0.35703117 0.42491764 0.5314335 0.2964604 -0.0012994768 0.35438058 0.20077024
0.019982185 0.12509686 0.22533534 0.16191638 0.13642105 -0.25810137 0.20047933 -0.033779588
-0.35434002 0.12360047 0.015064885 0.011294269 -0.008816691 0.015063003 -0.04053945 -0.23235758
-0.023663199 0.10359965 0.08352075 0.1108099 0.073365785 -0.21113046 0.0323315 0.07212136
-0.08146625 0.08068026 0.3804527 -0.12596188 0.057932436 0.13860078 -0.084187336 0.47517505
-0.17462005 0.1097327 0.702174 -0.17507617 -0.03120175 -0.049888477 -0.27396327 -0.15766439
-0.011701437 -0.14394127 -0.45751897 0.12958449 0.22196715 -0.15331322 -0.042072494 -0.013326646
0.088323146 0.065007605 0.20509633 -0.017010994 0.2500176 0.462119 -0.29264343 0.0026189804
0.23470992 -0.31697544 -0.45711258 -0.15028556 -0.08157286 -0.2999504 -0.23548451 0.2141988
-0.14948966 -0.0057826666 -0.16727346 -0.14453398 0.3333542 -0.24867961 -0.2513661 0.21894686
-0.1086533 -0.08688652 0.17778932 -0.15369542 0.40582585 0.49908432 -0.1603686 0.21603176
0.33887905 0.04706152 -0.015964063 -0.025012515 0.09775386 -0.31725115 0.038234275 -0.18136108
0.1830048 0.32016423 -0.21690995 0.015841441 0.34318554 0.04488874 -0.16221327 -0.17863114
-0.22951189 -0.14596647 -0.023804514 -0.22104585 -0.31313097 -0.0044948203 -0.13590519 -0.067266084
-0.02942115 -0.27353847 0.062615834 0.052580625 -0.29681173 -0.13793473 0.03354491 -0.013940815
0.5123081 0.11333021 -0.18274008 0.4909817 0.6231079 0.08274554 0.31976703 0.2273449
0.17589141 0.0045971484 0.12782228 0.060247973 -0.019882683 0.090804614 -0.047554594 0.023554873
-0.04142433 0.18844241 -0.1743705 -0.19086187 0.28968042 0.019871453 -0.17426574 0.1557639
0.19279544 -0.18058054 -0.11065852 0.10010229 -0.08698748 0.091151305 -0.056178667 0.011064688
0.29729542 0.060847975 0.155501 0.06676718 -0.009134165 0.13110934 -0.084407665 -0.24851145
0.014661179 0.10789583 -0.19549724 0.005165276 -0.26288247 -0.12752871 0.24502727 -0.2687037
-0.36473018 -0.123853244 -0.32874808 -0.49627212 -0.18047394 -0.4844462 0.32151642 -0.08293023
0.054091435 -0.19923818 -0.10657726 -0.052483395 0.19977377 0.17193995 0.08793868 -0.0702478
0.17967442 0.51170975 -0.31501976 -0.15497722 0.12016401 -0.036875963 -0.22020182 0.14964217
-0.14415719 -0.07350554 0.3174038 -0.5558165 -0.014133914 0.5091904 0.16116439 -0.13688155
0.019437233 0.21465515 -0.04828436 0.1449066 0.1149824 -0.091683105 -0.013056783 -0.06524902
-0.07805016 -0.28999272 0.37536582 -0.12868866 -0.43039858 0.27965492 -0.007303319 -0.12370198
0.15625311 0.017025115 0.003697248 0.18221302 -0.13395768 -0.018581768 0.28505105 -0.2645531
-0.100944586 0.20570026 0.0038387515 -0.036857948 -0.16890188 -0.2552224 0.3130776 -0.15873665
-0.20311362 0.08416169 0.31148216 0.17117314 -0.10460788 -0.27134502 -0.24780028 0.1178161

module.feature.conv4.bn.weight f4 [16]
00000000: a696 683f 60d0 923f a53b 3d3f 8974 853f
00000010: 7215 503f 5da6 b33f 43be 723f 0aa9 943f
00000020: ce36 9c3f 24c5 593f 0654 503f b19c 803f
00000030: 3989 5b3f 313d 6f3f c0c9 873f d41d 8c3f
0.9085487 1.1469841 0.73919135 1.0426189 0.8128272 1.4035145 0.94821566 1.1614087
1.2204225 0.8506644 0.8137821 1.0047818 0.8575626 0.93452746 1.0608444 1.0946603

module.feature.conv4.bn.bias f4 [16]
00000000: c794 4f3d e325 18be 1e9d 4bbe c1ff 31be
00000010: f045 af3e 39cd a8be 4cc9 d1bb cd9d 2cbe
00000020: fbbf b53e 003a 6cbe 354d 5d3e b60f 64bd
00000030: c5f2 0c3e 3a28 c23e 594f 333d c07c 203f
0.050678995 -0.14858203 -0.19884154 -0.17382719 0.34233046 -0.32969072 -0.0064021703 -0.16857071
0.35498032 -0.23069 0.21611483 -0.055679046 0.13764484 0.37921315 0.043776844 0.62690353

module.feature.conv4.bn.running_mean f4 [16]
00000000: a25c 3340 a669 e7be db94 3cbf 7cde c8bf
00000010: a49e 01c0 7608 81bf c47f 70bf 5048 95bf
00000020: 3805 c3c0 8bf3 30c0 fd00 cc3f ecb5 23c0
00000030: bad4 0ac0 d209 29bf 2fbd 23c0 f39d e1bf
2.8025289 -0.4519779 -0.73664635 -1.5692897 -2.0253077 -1.0080707 -0.93944955 -1.1662693
-6.094387 -2.7648647 1.5937802 -2.5579786 -2.1692338 -0.6603061 -2.5584219 -1.7626327

module.feature.conv4.bn.running_var f4 [16]
00000000: 692d 2f41 5e04 d840 5d85 1741 0adc 3641
00000010: fb38 1e41 c2b8 a340 05c1 2b41 f3b5 2b41
00000020: 494b ad41 3ea6 4241 e97a 2541 af83 ef40
00000030: 52f5 7d41 ec23 f840 3e07 1341 4b7a 5441
10.948586 6.750533 9.470059 11.42872 9.888911 5.1163034 10.734624 10.731921
21.66176 12.165586 10.342507 7.4848247 15.872393 7.754385 9.189268 13.279857

module.feature.conv5.conv.weight f4 [32, 16, 5, 5]
00000000: 3741 a43d 823c 193e cec0 42be cdc7 04be
00000010: 7d93 2f3d 1cc6 b73e 9c5b f03e f885 983d
00000020: 8d1b 87be a433 adbd ef51 823e 04ac 0e3f
00000030: 6d35 da3e 788e 9fba 9f2f 26be 387b 88be
00000040: 999e e83b c7ad ad3e 64cc 073e a66d 713b
00000050: fcfa c6be 623b ebbe 3d7b 87be b675 b03c
00000060: b04a 87bd fbdc 993e a2b6 9c3e a667 523d
00000070: b720 7ebe 92c3 83be 0993 ae3d 1cc8 7e3e
00000080: 1933 363d 496b c53d 05ed 55bd 94cc 66bd
00000090: 3073 e63b 6e79 bcbd 21ed 79bc 8b06 803d
000000a0: d039 653c f68a e23d d9f7 da3d d04a 0abe
000000b0: 8b6c 203e 580d 6c3d 09d4 4e3d d3c6 6d3e
000000c0: 133a 5c3d 1475 b4bd 49ed 063e 11bc 423e
000000d0: 2f57 aa3e 387d 563e 0b46 053d 98b8 e4bc
000000e0: d866 2c3c bdb1 063e 9df9 133e 50dd 103e
000000f0: 9b5a 333c 3fbc 423c d97d 32bd 0c8c 0a3e
00000100: 1372 ca3d 1d45 22bd ac48 20be 9030 79bd
00000110: ef51 b0bd 626c fabc 15da 4abd 6682 09bd
00000120: 8787 30bd 7a16 6fbd 5acc 4e3d 6d58 00bc
00000130: 814c 22bd 8cfd 9abe 9ae8 79be 30ef 2f3d
00000140: 2304 633e 2621 843d d891 c3be 69c1 eabe
00000150: 9e94 01be e242 9b3e 2c54 2c3e 6176 17bd
00000160: b8d5 b0be aa3c a7bd b196 2d3e b871 103e
00000170: 1ecd d9bc e15f 86be 3619 61be 6cfe 0c3e
00000180: 2523 1c3e a2b7 6d3e 9cce 563e 851a 1b3e
00000190: 14a0 c8bd 254d c2bd 3481 cb3d c306 1d3e
000001a0: 5d63 243e 0fe1 1d3d a85a 8a3e 11ea 483e
000001b0: 9ca1 273e 3602 debc 0e29 363d bea0 df3e
000001c0: 92c0 0f3f 895f 2c3e 94e2 973c d2ef 27be
000001d0: 6566 d53d 486b ab3e c45b 483e 199a 983d
000001e0: 6245 82be bafe 56be 53e3 8c3d 2f5a a03b
000001f0: eb01 a7bd 1d79 1ebe 7530 8dbe 5e44 97bd
00000200: 003e 603d a4a8 d7bc bc05 93bc 426c 3abe
00000210: ee9d 8cbd 8f87 263e d050 2f3e 606e c3bd
00000220: 7259 5cbe 02f1 4abd e10a 8b3d 1a5b bf3d
00000230: 3651 76bd 7729 d4bd 69ce a9bd 3e85 3e3d
00000240: 9357 1c3e a93c 96bb 51be 36bd 2b7f 923d
00000250: 5a6d 5f3e 8bd7 ca3d 477c 81bb 96ef e03d
00000260: 8ef3 bc3e fe7f 663e bdae b93c d12c 12be
00000270: 1f39 60bd 460c 3d3e b1dc fc3d 4ce6 2d3d
00000280: 6eb0 d2bd 002c b5be 1575 62be 32b1 743c
00000290: 3c02 593e 3013 7e3c f8b5 41be 3d52 d2be
000002a0: f31c 40be 88d4 023d d3fb 153e 28cf 28be
000002b0: 3f03 80be 492a 4ebe 81e2 403b 3ad1 cf3d
000002c0: f50f aebd 3245 0a3b 186c f13c ae01 9abc
000002d0: 904c 323c fe94 77bd 2f3b 923d bed8 3fbd
000002e0: bd28 93be f327 bbbc b34c f9bd 3434 7ebd
000002f0: cc91 2d3a 8a65 5fbd 0f33 f7bd f735 81be
00000300: 437f 10be ebd7 1ebd 62f7 c7bd 9b6f 2d3e
00000310: 638f 43bc 81c3 efbd 7335 04bc 3b8c a3ba
00000320: b63b 49be 5855 98be b0df ebbe 17d1 01bf
00000330: 29ff 9cbd 8b39 b23d 9ebf 74b9 d8bf c5be
00000340: 995d 5abf 652b 04bf b479 3d3e ec13 f23d
00000350: 49eb 683d 39f2 01bf d51c e0be 5664 ae3e
00000360: 9f17 a13e 5477 ed3d 1908 21be 928f acbe
00000370: 589c fa3e 81c0 b23e 9a74 943e 53eb 0a3e
00000380: edd9 57bd ca85 44be 8380 e9bd f383 713c
00000390: 6bd6 4b3e 5730 af3e 3905 45bc af59 9c3c
000003a0: 8c3e fbbc d50f 1cbe 3b80 de3d 8a88 bf3d
000003b0: 292f 323e bf5c 583e afe8 a5bd 9d16 84bd
000003c0: 8a28 98bd 78b0 1c3d 71c4 293d 3ea3 03be
000003d0: 7253 84be 7970 0bbe b58f 07be 8b76 6cbc
000003e0: 1004 95bd ece1 903d d997 633e 5254 6fbe
000003f0: 807d f5bd 617a df3d 9566 273d 648d 753e
0.08020251 0.14964488 -0.19018862 -0.12966843 0.042865265 0.35893333 0.46944892 0.074474275
-0.26388207 -0.08457115 0.25453135 0.55731225 0.42618886 -0.0012173196 -0.16229104 -0.26656508
0.0070989844 0.33921644 0.13261563 0.0036839037 -0.3886336 -0.45943743 -0.2646121 0.021540504
-0.066060424 0.30051407 0.30608088 0.051368378 -0.24817167 -0.25735146 0.085241385 0.24881023
0.044482324 0.09639604 -0.052227993 -0.056347445 0.0070327744 -0.092028484 -0.01525429 0.06251248
0.013990834 0.11061661 0.106918044 -0.13505101 0.15666406 0.057629913 0.05049518 0.23220377
0.05376632 -0.088113934 0.13176455 0.19017054 0.3326964 0.20946205 0.0325375 -0.027920052
0.010522567 0.1315374 0.14450689 0.14146924 0.010946895 0.011885702 -0.04357705 0.13529986
0.09885039 -0.039616693 -0.15652722 -0.06083733 -0.086093776 -0.03056926 -0.049524385 -0.033571623
-0.043098 -0.058371045 0.050487854 -0.007833582 -0.03962374 -0.30271566 -0.24405137 0.042952716
0.22169547 0.06451635 -0.38197207 -0.45850685 -0.12654349 0.30324465 0.16828984 -0.03697813
-0.34538054 -0.081658676 0.16952015 0.1410588 -0.026587065 -0.26245025 -0.21982273 0.13768929
0.15247782 0.23214582 0.20977253 0.15146835 -0.097961575 -0.094873704 0.09936753 0.1533461
0.16053529 0.03854471 0.2702229 0.19620539 0.16370243 -0.027100664 0.044472747 0.43677324
0.56153214 0.16833319 0.018540658 -0.16400078 0.10419921 0.33480287 0.19566256 0.07451267
-0.2544356 -0.20995608 0.06879296 0.004893563 -0.08154663 -0.15475889 -0.27576032 -0.07386087
0.054746628 -0.026325531 -0.01794707 -0.1820536 -0.0686606 0.16262649 0.17120671 -0.09542537
-0.21518496 -0.04954625 0.06789184 0.09343548 -0.060136043 -0.10359471 -0.08291323 0.04651379
0.15267782 -0.004584868 -0.044615094 0.071531616 0.21819058 0.09904393 -0.0039515826 0.109831974
0.36904567 0.22509763 0.02266633 -0.14274909 -0.054741975 0.18461713 0.12346781 0.042455956
-0.102875575 -0.35385132 -0.22114976 0.014934825 0.21192259 0.015507504 -0.18917072 -0.41078368
-0.18761043 0.031940967 0.14646845 -0.16485274 -0.25002477 -0.20133318 0.0029431882 0.10147329
-0.08499137 0.0021098373 0.029470488 -0.018799629 0.010882512 -0.060444824 0.071401946 -0.04683756
-0.28742018 -0.022846198 -0.12172832 -0.062061504 0.00066211517 -0.054540195 -0.120702855 -0.25236484
-0.14111046 -0.038780134 -0.097639814 0.16937105 -0.0119360415 -0.11707211 -0.008069384 -0.0012477705
-0.19651684 -0.29752612 -0.46069098 -0.5070967 -0.076658554 0.08702382 -0.00023341036 -0.38622928
-0.8529907 -0.51628715 0.18503457 0.11820206 0.05686501 -0.5076023 -0.43771997 0.34060925
0.31463334 0.11595026 -0.15725745 -0.33703285 0.48947406 0.34912494 0.2899521 0.13566332
-0.052698065 -0.19191661 -0.11401465 0.014740932 0.19906013 0.34216568 -0.012025171 0.019085733
-0.030669473 -0.15240414 0.10864302 0.09352215 0.17400803 0.2112913 -0.081010215 -0.06449626
-0.07429607 0.03825423 0.041447107 -0.1285524 -0.25844914 -0.13617124 -0.13238414 -0.01443256
-0.072761655 0.07074341 0.22225894 -0.2337201 -0.11986828 0.10912014 0.040869314 0.23979717

module.feature.conv5.bn.weight f4 [32]
00000000: 9459 8f3f 6d42 843f abc3 853f a8ad a13f
00000010: 56d8 7f3f aa71 873f b09e 8f3f 8d72 b13f
00000020: 680c 823f c8a4 8b3f f792 783f be74 9b3f
00000030: a55c 863f 4113 823f e40a 8d3f 492f 873f
00000040: 20ec 843f 6fa1 343f 8561 7c3f 7559 633f
00000050: bf84 7b3f 17ef 823f ee1b 683f 9fc6 823f
00000060: f018 9b3f 16f9 8d3f 3dac 933f 4bc7 923f
00000070: 7aec 983f 4f43 4f3f 4f1f 4d3f c603 563f
1.1199212 1.0332772 1.0450338 1.2631121 0.9993948 1.0581563 1.1220303 1.3863083
1.0160036 1.0909662 0.9709925 1.2145002 1.0497023 1.0162126 1.1018949 1.0561305
1.038456 0.7055883 0.98586303 0.88808376 0.9824943 1.0229214 0.9066762 1.0216864
1.2116985 1.109164 1.1536938 1.1467069 1.1947167 0.8096208 0.801259 0.8359951

module.feature.conv5.bn.bias f4 [32]
00000000: 2847 363f c5f5 573e 1a04 803d 7a2c d4be
00000010: 7b0d 853e 6957 173e 7168 70be 35e8 213e
00000020: da05 833e 056c c7be c409 4f3e 065f ffbd
00000030: 8385 133e 2cd1 44be ca4e 353e b7bb 83bd
00000040: 1b56 aebe 8bb2 86be cc61 2cbe a2a4 49be
00000050: e3be 9dbe 34e8 963d 9993 9c3d baef f3be
00000060: 0add cc3e a214 363d 1935 4a3e bd34 59be
00000070: 68c3 72bd 53b0 64be adf1 5c3d b4ad d3be
0.71202326 0.21089847 0.06250782 -0.41440183 0.25986847 0.14779438 -0.23477341 0.15811236
0.25590402 -0.389496 0.20218569 -0.12469296 0.144064 -0.19220418 0.17705837 -0.06432288
-0.34050068 -0.26308092 -0.16834182 -0.19691709 -0.30809698 0.07368508 0.076453395 -0.47643834
0.4001239 0.04445327 0.19746818 -0.21211524 -0.059268385 -0.22332887 0.053941417 -0.41343462

module.feature.conv5.bn.running_mean f4 [32]
00000000: 4410 bd3e 972a b3bf 795c d240 2a15 c8c0
00000010: d45c ebc0 3c48 2ac1 4ced 3ec0 a595 b3c0
00000020: ed30 abbe b52d 803f 984d d440 d82f c5c0
00000030: 3598 7f3f 1c5a 95c0 367b 41c0 2d9d 89c0
00000040: 269e 11c0 6504 3cc0 d40f 08c1 e2bf 3140
00000050: 9cd0 11c0 0db4 be40 2cd7 b9bf 1cd0 f93f
00000060: 1708 5dc1 8754 08c0 699a 33c0 64c0 afbf
00000070: 4fe7 69c0 fd88 4cc1 f793 dbc0 ecdf 1ec1
0.36926472 -1.3997372 6.573788 -6.2525835 -7.3550816 -10.642635 -2.9832335 -5.612017
-0.33435765 1.0013949 6.634472 -6.1620903 0.99841624 -4.6672497 -3.0231452 -4.3004365
-2.2752776 -2.9377682 -8.503864 2.7773366 -2.2783575 5.959479 -1.451879 1.9516635
-13.814475 -2.1301591 -2.8062994 -1.3730588 -3.654743 -12.783444 -6.861812 -9.929668

module.feature.conv5.bn.running_var f4 [32]
00000000: ddd0 d541 4bfc a541 557c 9341 c202 b541
00000010: e23c ac41 ba59 3542 4e01 ae41 df36 2742
00000020: 8428 da41 c2f2 8f41 c731 eb41 8bde a841
00000030: 6de6 0342 134f d641 0a41 d541 9b2e 9241
00000040: 098d 6a41 4496 d741 6069 1942 aafb 5c42
00000050: 79d3 9441 fe6c bc41 91eb 2242 2975 9341
00000060: 68d3 2c42 4ed8 1842 65b7 a041 0891 9341
00000070: 236e 9c41 feb3 1042 6c72 e941 77d8 dc41
26.726984 20.74819 18.435709 22.626347 21.529728 45.337624 21.750637 41.803585
27.269783 17.993534 29.399305 21.108664 32.975025 26.78861 26.656757 18.272757
14.659432 26.948372 38.352905 55.245766 18.603258 23.553219 40.730045 18.432207
43.20645 38.211235 20.089548 18.445816 19.553778 36.175774 29.18087 27.605696
